…
6,0,1->2,0,3
6,1,0->2,1,1
6,1,1->2,1,3
7,0,0->3,0,1
7,0,1->3,0,3
7,1,0->3,1,1
7,1,1->3,1,3
8,0,0->0,2,0
8,0,1->0,2,2
8,1,0->0,3,0
8,1,1->0,3,2
9,0,0->1,2,0
9,0,1->1,2,2
9,1,0->1,3,0
9,1,1->1,3,2
10,0,0->2,2,0
10,0,1->2,2,2
10,1,0->2,3,0
10,1,1->2,3,2
11,0,0->3,2,0
11,0,1->3,2,2
11,1,0->3,3,0
11,1,1->3,3,2
12,0,0->0,2,1
12,0,1->0,2,3
12,1,0->0,3,1
12,1,1->0,3,3
13,0,0->1,2,1
13,0,1->1,2,3
13,1,0->1,3,1
13,1,1->1,3,3
14,0,0->2,2,1
14,0,1->2,2,3
14,1,0->2,3,1
14,1,1->2,3,3
15,0,0->3,2,1
15,0,1->3,2,3
15,1,0->3,3,1
15,1,1->3,3,3

layer     filters    size              input                output
    0 conv     32  3 x 3 / 1   608 x 608 x   3   ->   608 x 608 x  32
    1 max          2 x 2 / 2   608 x 608 x  32   ->   304 x 304 x  32
    2 conv     64  3 x 3 / 1   304 x 304 x  32   ->   304 x 304 x  64
    3 max          2 x 2 / 2   304 x 304 x  64   ->   152 x 152 x  64
    4 conv    128  3 x 3 / 1   152 x 152 x  64   ->   152 x 152 x 128
    5 conv     64  1 x 1 / 1   152 x 152 x 128   ->   152 x 152 x  64
    6 conv    128  3 x 3 / 1   152 x 152 x  64   ->   152 x 152 x 128
    7 max          2 x 2 / 2   152 x 152 x 128   ->    76 x  76 x 128
    8 conv    256  3 x 3 / 1    76 x  76 x 128   ->    76 x  76 x 256
    9 conv    128  1 x 1 / 1    76 x  76 x 256   ->    76 x  76 x 128
   10 conv    256  3 x 3 / 1    76 x  76 x 128   ->    76 x  76 x 256
   11 max          2 x 2 / 2    76 x  76 x 256   ->    38 x  38 x 256
   12 conv    512  3 x 3 / 1    38 x  38 x 256   ->    38 x  38 x 512
   13 conv    256  1 x 1 / 1    38 x  38 x 512   ->    38 x  38 x 256
   14 conv    512  3 x 3 / 1    38 x  38 x 256   ->    38 x  38 x 512
   15 conv    256  1 x 1 / 1    38 x  38 x 512   ->    38 x  38 x 256
   16 conv    512  3 x 3 / 1    38 x  38 x 256   ->    38 x  38 x 512
   17 max          2 x 2 / 2    38 x  38 x 512   ->    19 x  19 x 512
   18 conv   1024  3 x 3 / 1    19 x  19 x 512   ->    19 x  19 x1024
   19 conv    512  1 x 1 / 1    19 x  19 x1024   ->    19 x  19 x 512
   20 conv   1024  3 x 3 / 1    19 x  19 x 512   ->    19 x  19 x1024
   21 conv    512  1 x 1 / 1    19 x  19 x1024   ->    19 x  19 x 512
   22 conv   1024  3 x 3 / 1    19 x  19 x 512   ->    19 x  19 x1024
   23 conv   1024  3 x 3 / 1    19 x  19 x1024   ->    19 x  19 x1024
   24 conv   1024  3 x 3 / 1    19 x  19 x1024   ->    19 x  19 x1024
   25 route  16
   26 conv     64  1 x 1 / 1    38 x  38 x 512   ->    38 x  38 x  64
   27 reorg              / 2    38 x  38 x  64   ->    19 x  19 x 256
   28 route  27 24
   29 conv   1024  3 x 3 / 1    19 x  19 x1280   ->    19 x  19 x1024
   30 conv    425  1 x 1 / 1    19 x  19 x1024   ->    19 x  19 x 425
   31 detection

original darknet
- each pixel value is divided by 255 so that it ranges from 0 to 1
- input image size: w = 768; h = 576
- the image is read by opencv, and thus the order is bgr
- then the image is converted to rgb through the function of rgbgr_image()
- the network input is 608 * 608
- the image is first rescaled with the ratio fixed and the resized image should
…
